…
Loading data for 14 events and 321 original time points ...
Loading data for 15 events and 321 original time points ...
0 bad epochs dropped
Dropped 1 epoch: 10
Loading data for 14 events and 321 original time points ...
Loading data for 15 events and 321 original time points ...
0 bad epochs dropped
Dropped 1 epoch: 14
Loading data for 14 events and 321 original time points ...
Model: "sequential_1"
_________________________________________________________________
 Layer (type)                Output Shape              Param #   
=================================================================
 conv2d (Conv2D)             (None, 64, 321, 8)        1280      
                                                                 
 batch_normalization (Batch  (None, 64, 321, 8)        32        
 Normalization)                                                  
                                                                 
 depthwise_conv2d (Depthwis  (None, 1, 321, 16)        1024      
 eConv2D)                                                        
                                                                 
 batch_normalization_1 (Bat  (None, 1, 321, 16)        64        
 chNormalization)                                                
                                                                 
 activation (Activation)     (None, 1, 321, 16)        0         
                                                                 
 average_pooling2d (Average  (None, 1, 80, 16)         0         
 Pooling2D)                                                      
                                                                 
 dropout (Dropout)           (None, 1, 80, 16)         0         
                                                                 
 separable_conv2d (Separabl  (None, 1, 80, 16)         512       
 eConv2D)                                                        
                                                                 
 batch_normalization_2 (Bat  (None, 1, 80, 16)         64        
 chNormalization)                                                
                                                                 
 activation_1 (Activation)   (None, 1, 80, 16)         0         
                                                                 
 average_pooling2d_1 (Avera  (None, 1, 10, 16)         0         
 gePooling2D)                                                    
                                                                 
 dropout_1 (Dropout)         (None, 1, 10, 16)         0         
                                                                 
 flatten (Flatten)           (None, 160)               0         
                                                                 
 dense (Dense)               (None, 4)                 644       
                                                                 
=================================================================
Total params: 3620 (14.14 KB)
Trainable params: 3540 (13.83 KB)
Non-trainable params: 80 (320.00 Byte)
_________________________________________________________________
Epoch 1/10
395/395 - 122s - loss: 1.1881 - accuracy: 0.4782 - val_loss: 1.1566 - val_accuracy: 0.4902 - 122s/epoch - 309ms/step
…
